DRL_robot_navigation_ros2/src/td3/scripts/pytorch_models/td3_velodyne_actor.pth (torch, 614326 bytes, 6 tensors)

layer_1.weight f4 [400, 79]
0.0112599 0.01192765 0.009747889 0.009229893 0.007847344 0.010880809 0.007415201 0.011247822
0.010202889 0.00953305 0.010294079 0.010109777 0.0096798 0.0097952355 0.007923599 0.0076546376
0.008144386 0.011556319 0.009494342 0.011826407 0.011931717 0.012573283 0.008381388 0.010329882
0.011626028 0.013089044 0.009333152 0.01118264 0.012576744 0.011936191 0.013672944 0.009317506
0.010161802 0.012496432 0.013019321 0.013662153 0.012181334 0.007941348 0.007992066 0.008062747
0.009464754 0.0087930495 0.008346395 0.008693038 0.0130781615 0.010841172 0.013436927 0.008295942
0.0101828305 0.01123647 0.007882031 0.008435301 0.011729756 0.009660445 0.007837059 0.008751607
0.009968549 0.008229446 0.008500017 0.0085418075 0.011739324 0.011288969 0.010452359 0.01272145
0.0082309935 0.009619253 0.0077736764 0.010121973 0.009854376 0.010309821 0.008553175 0.009006179
0.009454789 0.009576202 0.00813044 0.011977485 -0.003919375 0.009341178 -0.014276087 0.02522473
0.0264026 0.026951564 0.022327567 0.021682158 0.023607956 0.025489531 0.022299232 0.02428232
0.0221468 0.026376817 0.023741586 0.024743242 0.026907478 0.02363575 0.021993479 0.026618952
0.022821236 0.001065044 0.0064386996 0.0018248616 0.0027859139 0.003339572 0.004444165 0.0013564327
0.0050333613 0.0041068355 0.0035669748 0.0022320186 0.0020564261 0.0034917493 0.0048153982 0.0008683946
0.005619265 0.0048971744 0.0033769405 0.0046984116 0.0048999004 0.0046598273 0.00445598 0.0015244742
0.0066363625 0.0049004094 0.0040267287 0.0026565872 0.00459805 0.0039040148 0.0064451722 0.022370119
0.025524965 0.021554606 0.022021987 0.026275165 0.026063332 0.02469341 0.025686864 0.024160488
0.026446482 0.02169568 0.02120618 0.022924818 0.023530893 0.02614579 0.02299129 0.023948392
0.02561314 0.022122927 0.021649307 0.023330035 0.026964514 0.02193886 0.027009502 0.022978319
0.026818285 0.024017356 0.021518545 0.017657999 0.015001565 0.020593747 0.005495658 0.002382317
0.0054682903 0.0035594893 0.004865452 0.0058347275 0.006485161 0.0033713344 0.005939792 0.001295025
0.0035812785 0.005914689 0.0036490487 0.005149544 0.0027258995 0.007020294 0.004327093 0.0039590327
0.008108102 0.0057465993 0.004281654 0.002107202 0.005825823 0.0035870173 0.0023741676 0.0068690097
0.0031460377 0.0035407017 0.004133112 0.0042576226 0.0048460523 0.007885806 0.0079017915 0.0064898627
0.005881394 0.0076525095 0.007189526 0.0037439237 0.0025112685 0.0022820733 0.002053595 0.0036662433
0.0068139466 0.0041211457 0.0060125673 0.0056264326 0.0050660726 0.005599812 0.0022424022 0.0022199356
0.0049885134 0.0060073873 0.0020159995 0.0034824507 0.0011432434 0.0045121512 0.0060155885 0.0013875957
0.0022295606 0.0064275274 0.0047963574 0.0038036273 0.0032138291 0.0038434549 0.0036214464 0.0036542288
0.005747876 0.003360667 0.0044499687 0.0034038795 0.0061403373 0.005975773 0.001217288 0.004055
0.0065939804 0.009297637 0.0017317688 0.006192315 -0.012332103 -0.006105917 -0.0029707174 -0.007784821
-0.006245372 -0.0060479734 -0.0061666956 -0.005684382 -0.008052078 -0.0042442945 -0.0075761066 -0.0038329726
-0.005165846 -0.0037554838 -0.004908987 -0.0054557873 -0.0034292894 -0.0039202916 -0.0051559396 -0.0076462235
00000000: 727b 383c 316c 433c 9cb5 1f3c fa38 173c
00000010: 2592 003c 6c45 323c 37fb f23b c948 383c
00000020: 052a 273c 8230 1c3c 7fa8 283c 7aa3 253c
00000030: 0698 1e3c 327c 203c fcd1 013c c1d3 fa3b
00000040: 0870 053c b756 3d3c 288e 1b3c 8cc3 413c
00000050: 407d 433c 2c00 4e3c 1752 093c aa3e 293c
00000060: 197b 3e3c 6e73 563c 14ea 183c 6437 373c
00000070: b00e 4e3c 0390 433c 7c04 603c 74a8 183c
00000080: b07d 263c d6bd 4c3c fd4e 553c 39d7 5f3c
00000090: 3894 473c 6d1c 023c 28f1 023c 9d19 043c
000000a0: 0e12 1b3c b910 103c 51bf 083c 3e6d 0e3c
000000b0: c945 563c 2c9f 313c 8f26 5c3c b4eb 073c
000000c0: e3d5 263c 2c19 383c a223 013c 3734 0a3c
000000d0: 2a2e 403c d846 1e3c 0267 003c e662 0f3c
000000e0: 2053 233c ccd4 063c a843 0b3c f0f2 0b3c
000000f0: 4b56 403c 5ef5 383c 5f40 2b3c a16d 503c
00000100: 4adb 063c 129a 1d3c 53ba fe3b a2d6 253c
00000110: 4074 213c 86ea 283c 9e22 0c3c a78e 133c
00000120: 42e8 1a3c 81e5 1c3c 8935 053c 373d 443c
00000130: 1a6e 80bb be0b 193c 40e6 69bc 18a4 ce3c
00000140: 444a d83c 87c9 dc3c 4de8 b63c c89e b13c
00000150: 7965 c13c 6ccf d03c e1ac b63c b7eb c63c
00000160: 356d b53c 3214 d83c b77d c23c 57b2 ca3c
00000170: 126d dc3c c39f c13c ab2b b43c fd0f da3c
00000180: 9af3 ba3c f298 8b3a bafb d23b 3230 ef3a
00000190: e193 363b b9dc 5a3b 5ca0 913b 54ca b13a
000001a0: e5ee a43b a292 863b e8c3 693b 0f47 123b
000001b0: 1bc5 063b d5d5 643b 7dca 9d3b faa4 633a
000001c0: d021 b83b 7a78 a03b a94f 5d3b 22f5 993b
000001d0: 588f a03b 77b1 983b 7803 923b ded0 c73a
000001e0: d875 d93b 9d93 a03b a6f2 833b 231a 2e3b
000001f0: 3dab 963b 80da 7f3b 0632 d33b 8a41 b73c
00000200: bb19 d13c 4993 b03c 7467 b43c 043f d73c
00000210: c582 d53c d649 ca3c 426d d23c 37ec c53c
00000220: 4ba6 d83c 24bb b13c 95b8 ad3c d4cc bb3c
00000230: dcc3 c03c b22f d63c 3b58 bc3c 6b2f c43c
00000240: a6d2 d13c 243b b53c e359 b13c a11e bf3c
00000250: afe4 dc3c 20b9 b33c 0843 dd3c 073d bc3c
00000260: 05b2 db3c 0cc0 c43c a947 b03c 82a7 903c
00000270: 20c9 753c 38b4 a83c ec14 b43b a620 1c3b
00000280: 582f b33b 5246 693b 5f6e 9f3b 3e31 bf3b
00000290: 7981 d43b 9bf1 5c3b 96a2 c23b d4bd a93a
000002a0: e2b3 6a3b 02d0 c13b e124 6f3b 82bd a83b
000002b0: 01a5 323b 7f0a e63b 49ca 8d3b c6ba 813b
000002c0: d8d7 043c f84d bc3b 1e4d 8c3b fc18 0a3b
000002d0: 8ce6 be3b 2a14 6b3b ec97 1b3b 6e15 e13b
000002e0: c12d 4e3b 1e0b 683b 0e6f 873b 8783 8b3b
000002f0: a2cb 9e3b 7833 013c 8476 013c eaa8 d43b
00000300: b5b8 c03b e7c1 fa3b 1e96 eb3b 9e5c 753b
00000310: 1894 243b d68e 153b 9b95 063b 5b45 703b
00000320: 8747 df3b ad0a 873b 1205 c53b f05d b83b
00000330: 4c01 a63b a17e b73b 44f5 123b 577c 113b
00000340: af76 a33b 9ed9 c43b dc1e 043b d439 643b
00000350: e2d8 953a abda 933b 6a1e c53b fcdf b53a
00000360: d21d 123b 029e d23b c32a 9d3b 4746 793b
00000370: 1b9f 523b 79e2 7b3b ca55 6d3b c97b 6f3b
00000380: ae58 bc3b a33e 5c3b 0bd1 913b 9f13 5f3b
00000390: e234 c93b 6bd0 c33b 688d 9f3a cedf 843b
000003a0: 5112 d83b 1e55 183c 85fc e23a e7e8 ca3b
000003b0: 970c 4abc 2514 c8bb 5eb0 42bb d017 ffbb
000003c0: faa5 ccbb 142e c6bb fe11 cabb 0d44 babb
000003d0: ddec 03bc b913 8bbb fd40 f8bb 9c32 7bbb
000003e0: 4246 a9bb 901e 76bb 91db a0bb 76c6 b2bb
000003f0: eebd 60bb ca75 80bb 28f3 a8bb 2c8d fabb

layer_1.bias f4 [400]
0.040677276 -0.013380121 0.08512204 0.01770124 0.027679188 -0.015311272 0.06758562 0.031330455
-0.08055711 -0.005193872 0.04381338 0.038995806 -0.028297598 0.10257061 0.085893355 -0.057462204
0.11067863 0.07776993 0.07764376 -0.026806854 0.053848494 -0.06344514 0.062866606 -0.00075936585
0.07577823 0.06618208 0.031192912 0.034828953 -0.054832406 -0.060176652 -0.060522087 -0.028332729
-0.09100071 -0.03870566 -0.011869272 -0.1068797 0.08515577 0.0032462645 0.07694163 -0.101167545
0.064368874 -0.08717247 0.04297673 0.10971623 0.08549437 -0.082692236 -0.044284586 -0.049311116
0.03802067 -0.03182896 0.072244406 -0.0550899 -0.00076080096 0.010865807 -0.074284755 0.015657794
-0.09534361 -0.06322151 -0.11079073 0.03931957 -0.04444054 -0.017241286 0.04354234 0.0573145
0.047110513 0.04224921 0.099331215 -0.02591838 0.109390005 -0.033864543 -0.10759916 -0.0016229444
-0.035767604 -0.04659179 -0.06291726 -0.020002238 0.009081422 0.0236667 -0.0017906469 0.085913524
0.08630182 -0.05810674 -0.053797275 0.0063168514 0.04874071 0.08789748 0.064490154 0.07478518
0.0037897436 -0.08810755 0.088081874 0.030367339 0.070778914 -0.06559853 -0.07777975 0.051167283
-0.024632622 -0.03839077 0.102342665 0.038081948 0.10525521 0.12117242 -0.0794556 0.10627819
0.09339265 -0.075336084 0.0036715819 0.089317374 0.040889837 -0.07000003 -0.06809065 -0.08920403
0.048943114 -0.08590248 0.0327575 -0.07973027 -0.04372285 0.09301998 -0.086304754 0.0060020187
0.07467111 -0.06470337 -0.014947862 -0.034722984 0.097583994 0.032709867 0.055660307 -0.06376457
-0.111767866 0.07485468 0.059933178 0.09427511 0.047346644 0.041847352 0.01677145 -0.055718083
-0.035598833 0.120154336 -0.0011619357 0.0037175773 -0.07799241 0.08707306 0.00074009574 0.010813004
-0.0005558181 0.091563284 0.100567155 0.10638023 -0.07671119 -0.04490125 -0.06248168 0.05255403
0.05316957 -0.10861869 -0.092163675 -0.033189625 -0.016841007 0.09254916 0.048155755 0.09319541
-0.061460104 0.08932713 0.09180179 0.08902378 0.014744451 0.105895326 0.024007859 -0.013833473
-0.038128614 0.042884633 0.05030723 0.11587119 0.10360218 0.03289792 0.036634546 0.057858404
0.07674227 -0.018305223 0.0676651 -0.07875251 -0.04746207 0.04333551 -0.069203034 -0.050627913
0.030438222 -0.0089799715 0.06284217 -0.06892077 -0.096495084 0.0035269768 0.025042018 0.030818336
-0.08349942 -0.07315554 0.052886795 0.011481578 0.07818275 -0.057873126 0.11143968 -0.01015588
0.028343186 -0.06975016 0.010089123 -0.03407835 -0.08699882 0.081908375 0.040950693 -0.07676173
0.05081603 -0.03347402 -0.110133655 0.03626103 -0.040580135 0.078042366 -0.011826409 -0.070042215
-0.03850104 0.066004165 -0.08725894 0.03261671 -0.08946602 -0.08599307 -0.020371623 0.08289726
-0.042514633 -0.0629299 -0.045715157 -0.07341111 -0.012901093 -0.09673296 0.039404433 -0.07991661
-0.106271 -0.0756385 -0.043771055 0.020402735 0.07790534 -0.06782752 0.072925694 -0.06872876
-0.08370689 0.03286293 -0.01564062 -0.05372022 0.004635534 0.02257164 0.09832186 0.040098082
-0.011832683 -0.09268695 -0.016910756 -0.08839202 -0.027557356 -0.054023635 -0.023918469 -0.08546878
00000000: 379d 263d 4c38 5bbc 7754 ae3d 3102 913c
00000010: 77bf e23c 21dc 7abc 546a 8a3d 5d54 003d
00000020: 20fb a4bd 5b31 aabb a975 333d 11ba 1f3d
00000030: 5dd0 e7bc 8a10 d23d dbe8 af3d 7d5d 6bbd
00000040: 7aab e23d d745 9f3d b103 9f3d 0c9a dbbc
00000050: 3d90 5c3d 87ef 81bd 35c0 803d 2e10 47ba
00000060: 9e31 9b3d 788a 873d 4788 ff3c cea8 0e3d
00000070: f297 60bd cb7b 76bd 02e6 77bd 0a1a e8bc
00000080: 955e babd d389 1ebd 5677 42bc bfe3 dabd
00000090: 2666 ae3d 48bf 543b 9393 9d3d ee30 cfbd
000000a0: d4d3 833d 7b87 b2bd 5e08 303d e7b2 e03d
000000b0: ac17 af3d 8c5a a9bd c163 35bd 74fa 49bd
000000c0: 90bb 1b3d 155f 02bd e0f4 933d f2a5 61bd
000000d0: 7d70 47ba 7f06 323c 9b22 98bd c644 803c
000000e0: 8343 c3bd 477a 81bd 40e6 e2bd 8f0d 213d
000000f0: 4907 36bd 993d 8dbc 7459 323d 9cc2 6a3d
00000100: f4f6 403d 820d 2d3d 2a6e cb3d c852 d4bc
00000110: de07 e03d 8cb5 0abd f35c dcbd fab8 d4ba
00000120: 0d81 12bd 08d7 3ebd c4da 80bd bcdb a3bc
00000130: 3fca 143c abe0 c13c 24b4 eaba 6ef3 af3d
00000140: 02bf b03d 5501 6ebd 885a 5cbd 97fd ce3b
00000150: 57a4 473d 9803 b43d 6a13 843d f928 993d
00000160: 595d 783b bb71 b4bd 4564 b43d edc4 f83c
00000170: 89f4 903d 8658 86bd fd4a 9fbd c994 513d
00000180: 5aca c9bc a43f 1dbd 0899 d13d d1fb 1b3d
00000190: 0b90 d73d 3f29 f83d 9eb9 a2bd 61a8 d93d
000001a0: a544 bf3d ce49 9abd ec9e 703b 07ec b63d
000001b0: 1a7c 273d 2d5c 8fbd 1c73 8bbd 9ab0 b6bd
000001c0: 9378 483d a4ed afbd ba2c 063d a049 a3bd
000001d0: bb16 33bd 4281 be3d 8cc0 b0bd 95ac c43b
000001e0: 2bed 983d 3383 84bd e1e7 74bc b039 0ebd
000001f0: 1eda c73d c8fa 053d 10fc 633d 0097 82bd
00000200: 8de6 e4bd 694d 993d 7e7c 753d 4f13 c13d
00000210: 8eee 413d 2168 2b3d 4864 893c a538 64bd
00000220: 15d0 11bd 7a13 f63d 184c 98ba 99a2 733b
00000230: 7cba 9fbd 5c53 b23d fc02 423a 0729 313c
00000240: 52b4 11ba 8885 bb3d 27f6 cd3d e1dd d93d
00000250: c21a 9dbd 60ea 37bd caec 7fbd e542 573d
00000260: 56c8 593d 7a73 debd 4fc0 bcbd d8f1 07bd
00000270: 27f6 89bc 6a8a bd3d f83e 453d 3cdd be3d
00000280: 97bd 7bbd 24f1 b63d 9402 bc3d 1952 b63d
00000290: b692 713c a6df d83d 21ac c43c cba5 62bc
000002a0: c02c 1cbd cca7 2f3d f40e 4e3d e04d ed3d
000002b0: 612d d43d f8bf 063d 1b0e 163d effc 6c3d
000002c0: 0d2b 9d3d d6f4 95bc 0094 8a3d ff48 a1bd
000002d0: 9667 42bd 9380 313d 52ba 8dbd 375f 4fbd
000002e0: 9459 f93c bb20 13bc 65b3 803d 5526 8dbd
000002f0: 379f c5bd da24 673b eb24 cd3c bc76 fc3c
00000300: be01 abbd 92d2 95bd d39f 583d 3b1d 3c3c
00000310: 471e a03d 5f0c 6dbd 7d3a e43d d964 26bc
00000320: f82f e83c 2cd9 8ebd d94c 253c bd95 0bbd
00000330: 702c b2bd 94bf a73d eabb 273d 4135 9dbd
00000340: 7824 503d 0e1c 09bd c18d e1bd 7286 143d
00000350: 5b37 26bd add4 9f3d 8ec3 41bc 4b72 8fbd
00000360: 44b3 1dbd 312d 873d d1b4 b2bd 1999 053d
00000370: f639 b7bd 221d b0bd 64e2 a6bc 0ac6 a93d
00000380: d323 2ebd 64e1 80bd d13f 3bbd 9058 96bd
00000390: 1b5f 53bc ee1b c6bd 8b66 213d 52ab a3bd
000003a0: 9ca4 d9bd 5ce8 9abd 4749 33bd a323 a73c
000003b0: d68c 9f3d 28e9 8abd 115a 953d aac1 8cbd
000003c0: 856e abbd 489b 063d c220 80bc bc09 5cbd
000003d0: ade5 973b 29e8 b83c f95c c93d e33d 243d
000003e0: dfdd 41bc a8d2 bdbd 6d88 8abc e006 b5bd
000003f0: f7bf e1bc e347 5dbd aaf0 c3bc 410a afbd

layer_2.weight f4 [300, 400]
0.032473914 0.0151824895 0.027370295 0.0017233562 0.02836542 -0.0020522529 -0.0014994936 -0.0006526809
0.0010628864 0.02867036 0.0014604024 0.0017196329 -0.0028639673 -0.0029823796 0.0027965773 -0.0027050204
0.031182118 0.0019228932 0.0006889724 0.03245505 0.0024625266 -0.0006293593 0.02748547 0.0012852792
0.02993728 0.002851273 -0.0011215127 -0.0027369733 -0.0010670447 0.0305133 0.029809933 -0.0022959113
0.0010672585 0.0015652761 0.0025595878 -5.336988e-05 0.021333558 0.00031168736 0.030538922 -0.0019752001
-0.0013448525 0.018702172 0.02911873 0.029522575 0.0015179294 0.02699803 7.947028e-05 0.0027884804
-0.0019479279 0.029845916 0.0011649992 0.0326197 0.0016004841 -0.00027121426 -3.7824513e-05 0.009365703
0.00085574196 0.0007219845 0.00036108078 0.029256968 -0.0028122046 0.001869902 0.00015914656 0.001973073
-0.0019280745 0.030384151 0.00102332 -0.0022390822 0.026955536 0.024312591 0.0015949482 -0.0015542153
0.026805516 0.029131388 -0.00055056985 -0.002399745 -0.002478055 0.030528016 0.030466314 0.00036567522
0.02847464 0.0024616732 0.03234523 0.028296769 -0.0018149532 0.001430332 0.0006707851 0.0023550617
-0.00028532124 0.00070118986 0.029856622 -0.0029198201 0.00240988 -0.00022316801 0.032513037 0.0009313352
0.032382946 0.029466717 -0.00032154965 0.028808257 0.028443772 0.027539363 0.026689544 0.032524608
-0.001883758 0.031949632 0.002718154 0.03158307 -0.00066407525 -0.0019350006 -0.002242084 0.007109265
0.0026081065 0.0013682445 0.032678816 0.025295515 0.030931344 -0.0017372364 -0.00037306594 -0.0019152947
0.00039345503 0.0021604006 0.030622229 -0.00240495 -0.0027653254 0.00043178844 -0.00020842302 0.0015786767
0.0022210658 0.03249609 0.00280539 0.029515361 -0.00058804965 0.0028653543 0.018598445 -8.410049e-05
-7.346749e-05 0.03069169 0.0017924509 0.00043910265 -0.002891554 -0.002262853 0.030009022 -0.0011987332
0.00066574884 0.027685475 -0.0027796626 0.028477129 0.0007116351 0.0032972898 0.011827773 0.027645154
0.032602973 -0.0019051197 0.00020828712 0.006226499 -0.0006143521 0.030094564 0.032439727 0.03273979
0.027025681 0.0024463928 0.00081367634 0.031042654 0.029245453 6.402691e-05 0.031514797 -0.00073429226
0.018382486 0.031351775 0.030308973 0.030753573 0.028755879 0.015693251 0.027316611 0.029566502
0.0014527091 0.030013427 0.0008962888 0.019088836 0.0022923334 0.027746495 0.0005222769 -0.0010263344
-0.0022591166 -0.0012754808 0.0005020069 0.03191031 0.0027944907 0.0006898073 0.02055609 0.029830018
-0.0012955156 -0.00022359718 0.029311405 0.0011563636 0.02766917 -7.219041e-05 0.029572688 0.0029778492
0.0009089706 -0.0017097358 0.028136916 -0.002547666 0.0027940082 0.032515336 0.029243885 -0.0021744166
0.0315642 -0.0008529321 0.0023656234 0.032796655 0.024937956 0.029946612 -0.0021748606 0.029359892
0.030012116 0.032496773 -0.002196888 0.032447245 0.0002768154 0.0020578105 0.027192898 0.0026468306
0.032741405 0.0010255233 0.0010020869 0.030176515 -0.0025982792 -0.00040067267 0.0023968031 0.03007392
-0.00033742905 0.03125365 0.03180225 0.0004799924 0.0012591974 0.002926584 0.030298902 0.02769263
-0.0019701682 -0.0015748003 0.0027025477 -0.0024170908 0.00080640684 0.0277662 0.031598095 0.0014660234
0.0011376268 -0.0013517042 0.027968885 0.0006853713 0.0023953947 0.02396131 0.00164277 0.00035453297
00000000: 5e03 053d fabf 783c ab37 e03c 3de2 e13a
00000010: 995e e83c 177f 06bb a88a c4ba ac18 2bba
00000020: 8d50 8b3a 1ade ea3c f96a bf3a 4e65 e13a
00000030: 66b1 3bbb 0774 43bb c846 373b b646 31bb
00000040: a471 ff3c 9709 fc3a 289c 343a 96ef 043d
00000050: 5762 213b 96fb 24ba 3529 e13c d076 a83a
00000060: 073f f53c 6cdc 3a3b b9ff 92ba cb5e 33bb
00000070: 14dc 8bba 07f7 f93c f633 f43c 0077 16bb
00000080: 41e3 8b3a f329 cd3a c2be 273b 79d9 5fb8
00000090: b7c3 ae3c f869 a339 c32c fa3c 5c72 01bb
000000a0: c345 b0ba 4c35 993c 678a ee3c 54d9 f13c
000000b0: 42f5 c63a f92a dd3c 48a9 a638 f0be 363b
000000c0: 9d51 ffba 6c7f f43c e3b2 983a 3c9c 053d
000000d0: 56c7 d13a c331 8eb9 c3a5 1eb8 9b72 193c
000000e0: df53 603a 8f43 3d3a 714f bd39 4fac ef3c
000000f0: f74c 38bb 8017 f53a 94e0 2639 ac4e 013b
00000100: 72b7 fcba 2fe8 f83c ec20 863a 91bd 12bb
00000110: dbd1 dc3c 332b c73c 950d d13a d0b6 cbba
00000120: 3e97 db3c f3a4 ee3c 1e54 10ba 0a45 1dbb
00000130: dd66 22bb e415 fa3c 7e94 f93c 19b8 bf39
00000140: a643 e93c 0654 213b 6f7c 043d a0ce e73c
00000150: b9e3 edba fa79 bb3a a0d7 2f3a 6157 1a3b
00000160: 2b97 95b9 0ed0 373a e095 f43c 745a 3fbb
00000170: 14ef 1d3b 3502 6ab9 642c 053d d924 743a
00000180: fba3 043d 2f64 f13c aa95 a8b9 4bff eb3c
00000190: ea02 e93c 3b9a e13c 08a4 da3c 8638 053d
000001a0: 6ee8 f6ba 9edd 023d 0f23 323b 405d 013d
000001b0: 5615 2eba d99f fdba edef 12bb d6f4 e83b
000001c0: c4ec 2a3b ab56 b33a 39da 053d 8a38 cf3c
000001d0: bb63 fd3c fbb3 e3ba 1098 c3b9 a00a fbba
000001e0: a448 ce39 8295 0d3b 78db fa3c 5e9c 1dbb
000001f0: 763a 35bb aa61 e239 218c 5ab9 9aeb ce3a
00000200: 4d8f 113b 9f1a 053d a2da 373b 33ca f13c
00000210: 5827 1aba abc8 3b3b c45b 983c 1b5f b0b8
00000220: 8f12 9ab8 246d fb3c acf0 ea3a 5c37 e639
00000230: 3a80 3dbb 604c 14bb 7bd5 f53c d01e 9dba
00000240: a685 2e3a a6cc e23c 002b 36bb de48 e93c
00000250: 068d 3a3a 5817 583b 47c9 413c 1778 e23c
00000260: b28a 053d 36b5 f9ba a667 5a39 a907 cc3b
00000270: 790c 21ba e088 f63c 85df 043d 281a 063d
00000280: f664 dd3c a953 203b e54c 553a 2a4d fe3c
00000290: 2994 ef3c 3046 8638 a915 013d 857d 40ba
000002a0: de96 963c b86a 003d 864a f83c ebee fb3c
000002b0: 7391 eb3c 228f 803c 16c7 df3c 7335 f23c
000002c0: d468 be3a b8de f53c ecf4 6a3a 3160 9c3c
000002d0: f93a 163b 9e4c e33c 69e9 083a 1186 86ba
000002e0: b00d 14bb 092e a7ba 1d99 033a 63b4 023d
000002f0: c623 373b 2fd4 343a 3f65 a83c 155e f43c
00000300: 4ace a9ba 6975 6ab9 791e f03c 2091 973a
00000310: 75aa e23c ee64 97b8 6c42 f23c 0528 433b
00000320: fc47 6e3a 3719 e0ba 647f e63c bef6 26bb
00000330: ae1b 373b cd2e 053d df90 ef3c a880 0ebb
00000340: 7649 013d 4e97 5fba 9308 1b3b c955 063d
00000350: af4a cc3c 9952 f53c 1b88 0ebb 2884 f03c
00000360: f8db f53c 561b 053d aaf9 0fbb 67e7 043d
00000370: 8921 9139 55dc 063b a4c3 de3c 7376 2d3b
00000380: da1b 063d da6a 863a 7558 833a bd34 f73c
00000390: e447 2abb 6011 d2b9 af13 1d3b 955d f63c
000003a0: f6e8 b0b9 d403 003d 1343 023d 7da7 fb39
000003b0: a70b a53a efcb 3f3b 6735 f83c a8db e23c
000003c0: f01d 01bb 8869 ceba 3a1d 313b 0e68 1ebb
000003d0: 0c65 533a f175 e33c 016d 013d 9527 c03a
000003e0: 6c1c 953a ab2b b1ba 011f e53c 7daa 333a
000003f0: 0efc 1c3b 824a c43c 3752 d73a 9ce0 b939

layer_2.bias f4 [300]
-0.009477523 -0.031738188 -0.01703449 0.088010624 -0.0033180804 -0.0347442 0.028090784 0.052122407
-0.012198733 0.006305966 -0.047356248 0.007816027 0.07938477 0.006455235 0.043259487 -0.05368161
0.07567602 -0.028616667 0.047319293 -0.03020289 0.051775232 -0.0146615505 -0.0019882084 0.020113146
0.056522228 -0.0610907 0.07468732 -0.036559146 0.0044972324 -0.024962524 0.05943075 0.025648175
-0.02949202 -0.0026862868 -0.042487167 0.03241279 -0.04868246 -0.044920076 0.0341714 0.026697585
0.07934327 -0.045714773 0.01713781 0.013222464 -0.01893338 0.064051665 -0.012250495 -0.026710624
0.007931346 0.031362727 0.009313311 0.010371343 -0.033287168 0.08016503 0.067374244 -0.047388144
0.030165639 0.0017105461 -0.0025476634 0.029008914 -0.0047850288 0.07901601 0.067031905 -0.0116213
0.020139813 0.04109942 0.040373903 -0.049769837 0.04292002 0.07271561 0.0762125 -0.00260458
0.03775218 0.041811224 0.059058905 0.031595007 -0.0005391393 0.042204574 -0.017731775 0.00039339066
-0.035618383 0.02938984 -0.040526357 0.016495837 -0.04554534 0.013276601 0.039528236 0.004162747
0.034659762 0.07207054 -0.0043987557 0.032991942 0.049164724 0.012146195 -0.036013473 0.039436903
-0.03563976 0.02690996 0.07208994 -0.005192197 0.016129067 0.036217082 0.0334932 -0.046772666
0.042635582 -0.029611712 -0.009858242 0.06010462 -0.010794536 0.0641444 -0.047040988 0.011174567
-0.021162331 0.051641937 -0.0058946284 -0.048527915 0.011843568 0.04888239 0.082015336 0.04752869
0.022637995 0.069325924 -0.014099819 0.058769505 -0.048447285 -0.002498448 0.028834002 0.010607056
0.0455876 0.0756851 -0.012214315 0.047875963 -0.019970512 -0.018276 -0.045292426 0.039833825
0.042588003 0.015362851 0.039997213 -0.035458215 0.04103412 0.04565104 0.0007511693 -0.012370607
0.07015564 0.0816169 -0.016140765 -0.039300293 0.01265205 0.056440953 0.07604796 -0.048508562
0.022665465 -0.018933957 0.016180016 0.060792875 0.04612275 -0.002358652 -0.03808386 0.003993859
0.031598035 -0.04106356 0.01187025 -0.036953554 -0.021222055 -0.0069607687 0.0472678 0.033790544
-0.009292173 0.019180013 -0.0077284635 -0.019981232 0.07395233 -0.01256106 0.024848647 0.07167556
0.0016069592 0.07317807 0.075471945 0.08280647 -0.008864473 -0.004903668 -0.021500945 0.067415565
0.07057366 -0.022250092 -0.0100146895 -0.0037470637 0.057498164 -0.030318491 0.024682373 0.042320672
0.020983556 -0.024570083 0.00079247676 -0.039012246 0.0051784194 -0.016306696 -0.04802822 0.0435003
-0.042349108 -0.007880688 0.06678926 -0.0052978992 0.0012428121 -0.048624285 -0.048669674 -0.019353557
-0.02599349 -0.0017919242 0.018606642 -0.047250103 0.06289034 -0.019202769 -0.025914686 0.012017882
-0.04234209 -0.02460664 -0.0069432207 0.03580842 0.000101011996 -0.0006662821 0.04318848 -0.019706696
0.043193992 -0.04842596 -0.075704284 -0.010110313 0.008177805 -0.0520784 -0.014527134 0.07199832
0.0282457 -0.06320731 0.049318347 0.024047425 -0.025528755 -0.037481546 -0.019903963 0.01800018
0.06813654 -0.05009927 0.08281412 0.081174955 -0.044380233 0.03883016 0.04539343 0.00081568694
-0.016487962 0.03883772 0.004878795 0.0007699728 0.038653787 0.038944636 0.038935408 0.08166219
00000000: 9d47 1bbc e7ff 01bd ea8b 8bbc ea3e b43d
00000010: 2774 59bb ef4f 0ebd a51e e63c 4e7e 553d
00000020: 32dd 47bc 47a2 ce3b a0f8 41bd cb0e 003c
00000030: 7b94 a23d 7086 d33b dc30 313d 3fe1 5bbd
00000040: 07fc 9a3d 806d eabc e0d1 413d 0d6c f7bc
00000050: 4412 543d 0037 70bc 9a4c 02bb 53c4 a43c
00000060: da83 673d 3e3a 7abd aaf5 983d 0bbf 15bd
00000070: 855d 933b 357e ccbc a86d 733d 1f1c d23c
00000080: 4099 f1bc 6a0c 30bb 0607 2ebd 46c3 043d
00000090: 4267 47bd 1dfe 37bd 4ff7 0b3d e5b4 da3c
000000a0: b97e a23d 6a3f 3bbd 9864 8c3c 09a3 583c
000000b0: 2d1a 9bbc 852d 833d 4db6 48bc 3dd0 dabc
000000c0: 7af2 013c 3476 003d dc96 183c 91ec 293c
000000d0: 2058 08bd 902d a43d 82fb 893d 121a 42bd
000000e0: ee1d f73c 6734 e03a b3f6 26bb 1aa4 ed3c
000000f0: bbcb 9cbb 25d3 a13d 0648 893d 4467 3ebc
00000100: 40fc a43c de57 283d 1b5f 253d 75db 4bbd
00000110: e7cc 2f3d eceb 943d 4d15 9c3d 9ab1 2abb
00000120: 08a2 1a3d 3f42 2b3d c0e7 713d c469 013d
00000130: 0755 0dba b4de 2c3d 3a42 91bc 0040 ce39
00000140: 95e4 11bd f6c2 f03c f7fe 25bd 4722 873c
00000150: c08d 3abd 1a86 593c 5ce8 213d a767 883b
00000160: 65f7 0d3d b899 933d 7023 90bb 8f22 073d
00000170: f360 493d d600 473c dd82 13bd 9788 213d
00000180: fffa 11bd 4772 dc3c e4a3 933d 4e23 aabb
00000190: 1b21 843c 5d58 143d 2a30 093d b294 3fbd
000001a0: a6a2 2e3d 4394 f2bc 7784 21bc 4330 763d
000001b0: 91db 30bc 245e 833d 0dae 40bd 8815 373c
000001c0: a05c adbc 7f86 533d ba27 c1bb 35c5 46bd
000001d0: 860b 423c e738 483d a8f7 a73d 72ad 423d
000001e0: 5173 b93c c0fa 8d3d ed02 67bc 4bb8 703d
000001f0: a970 46bd 00bd 23bb 4935 ec3c 38c9 2d3c
00000200: 10ba 3a3d ca00 9b3d 8d1e 48bc 9619 443d
00000210: 3399 a3bc 8db7 95bc 8d84 39bd cb28 233d
00000220: c270 2e3d 78b4 7b3c 1ed4 233d a23c 11bd
00000230: 6513 283d 96fc 3a3d 1eea 443a 16ae 4abc
00000240: c3ad 8f3d c326 a73d a339 84bc 58f9 20bd
00000250: 8b4a 4f3c a12e 673d 08bf 9b3d eab0 46bd
00000260: edac b93c 631b 9bbc f48b 843c f301 793d
00000270: 35eb 3c3d 9d93 1abb d2fd 1bbd ebde 823b
00000280: f16c 013d 4332 28bd 707b 423c 9c5c 17bd
00000290: e0d9 adbc 2917 e4bb e19b 413d f467 0a3d
000002a0: 333e 18bc 671f 9d3c 0d3f fdbb aeaf a3bc
000002b0: 5274 973d e7cc 4dbc 648f cb3c a3ca 923d
000002c0: 9aa0 d23a 62de 953d 0991 9a3d 7096 a93d
000002d0: 4b3c 11bc f3ae a0bb c022 b0bc 2c11 8a3d
000002e0: ec88 903d d345 b6bc a714 24bc 4c91 75bb
000002f0: 3283 6b3d 7c5e f8bc b032 ca3c 7158 2d3d
00000300: b5e5 ab3c 3347 c9bc 37be 4f3a 4ecb 1fbd
00000310: bbaf a93b 9f95 85bc 3db9 44bd 5f2d 323d
00000320: 4276 2dbd 001e 01bc cfc8 883d 009a adbb
00000330: dbe5 a23a 422a 47bd da59 47bd 5a8b 9ebc
00000340: 4df0 d4bc 00df eaba f56c 983c 5389 41bd
00000350: a7cc 803d 204f 9dbc 094b d4bc a7e6 443c
00000360: e66e 2dbd dd93 c9bc f583 e3bb daab 123d
00000370: 67d6 d338 6fa9 2eba 67e6 303d f06f a1bc
00000380: 2fec 303d 4d5a 46bd d90a 9bbd baa5 25bc
00000390: 33fc 053c 2950 55bd 3703 6ebc db73 933d
000003a0: 8763 e73c d672 81bd 0902 4a3d 1bff c43c
000003b0: ae21 d1bc 4086 19bd a30d a3bc 1d75 933c
000003c0: 2c8b 8b3d e434 4dbd 739a a93d 0e3f a63d
000003d0: 0cc8 35bd 600c 1f3d 76ee 393d d3d3 553a
000003e0: c311 87bc 4d14 1f3d 4cde 9f3b 00d8 493a
000003f0: 6f53 1e3d 6984 1f3d bc7a 1f3d 823e a73d

layer_3.weight f4 [2, 300]
-0.011271365 -0.00924048 0.0006096396 -0.015520804 -0.0041990825 0.00096052553 -0.0036825868 -0.016063847
-0.0042674704 -0.00495845 0.0018108974 -0.006237158 -0.014396924 -0.004862484 -0.0042307503 -0.0032680994
-0.014880946 0.0002803066 -0.014445005 0.0024339398 -0.016055198 -0.0017084996 -0.0028676998 -0.0053248396
-0.0156030115 -0.00011275971 -0.015012027 -0.0017890598 -0.0047485987 -0.007955604 -0.0143366475 -0.0036073811
0.0027132437 -0.0045376867 -0.004201004 -0.004938951 -0.0006263198 -0.0028293235 -0.005391213 -0.0041162875
-0.015390229 0.0010278071 -0.003969552 -0.005573152 -0.00084128167 -0.016964125 0.0027316315 -0.012541016
0.00095644285 -0.014268798 -0.004527004 -0.0038450132 -0.00014399564 -0.016648356 -0.014690103 0.0021394673
-0.00478973 -0.0006642108 0.0017930227 -0.0050805835 -0.013462785 -0.014383647 -0.015651409 -0.006865946
-0.0049046087 -0.004638575 -0.01565773 0.0012175394 -0.0035502275 -0.015917152 -0.015503982 -0.00025706185
-0.015929462 -0.0058138263 -0.01580723 -0.004652121 -0.004442651 -0.015940944 -0.004217302 -0.0013330189
0.0015465978 -0.0035918173 -0.0027838792 -0.00554914 0.00064939 -0.014763924 -0.0042235926 -0.0032250362
-0.0046125213 -0.017015535 -0.011473411 -0.0043408307 -0.01476546 -0.0041568135 -0.0009214679 -0.0040146173
-0.008947098 -0.013922381 -0.015796082 -0.005541467 -0.003190052 -0.005421028 -0.004593048 -0.0018309914
-0.0141103035 0.0028395846 -0.0049225264 -0.01579392 -0.0035897524 -0.015174296 0.0029541885 -0.005064189
-0.0010643059 -0.016680483 -0.00266576 -0.0040703206 -0.012323213 -0.01668167 -0.016420333 -0.014914656
-0.0138462465 -0.015954027 0.0020625072 -0.016682358 -0.002858495 -0.0024354926 -0.004347597 -0.013225406
-0.014277106 -0.016768396 5.671084e-05 -0.014855724 0.0014009231 -0.0041411724 -0.0016064547 -0.015635902
-0.014515817 -0.006137199 -0.016794275 0.0021690119 -0.01688416 -0.01411157 -0.0038257525 -0.009517588
-0.01570514 -0.016490506 3.1962274e-05 0.0017287231 -0.012385365 -0.01631442 -0.017051082 0.0021419774
-0.0033946303 -0.002361418 -0.004790629 -0.016393175 -0.014610167 -0.0049753073 -0.00289988 -0.0038663002
-0.005498056 -0.00066640665 0.0007778406 -0.002269184 0.002221172 -0.0017353956 -0.015563733 -0.015716976
-0.0025067711 -0.0030613316 0.0011701534 -0.0036019832 -0.014919182 -0.00039781988 -0.013218246 -0.014779454
0.0019001183 -0.014403924 -0.016829396 -0.0148068 -0.004896205 0.0013838693 0.00022397267 -0.01583729
-0.015549845 0.0008763392 -0.0029209855 -0.0046761786 -0.016630154 -0.009165343 -0.0043935697 -0.0052014347
-0.0039606346 -0.0042088185 -0.005154281 -0.0026651572 -0.004608902 -0.012110457 -0.0026834614 -0.005337948
-0.0015246116 -0.005512401 -0.015774572 -0.00033937918 -0.005550545 0.00027747382 -0.0003515686 -0.00017335224
-0.0028877622 0.0014311416 -0.013527866 -0.0012234353 -0.014017988 -0.0034507392 -0.002758 -0.0122558195
-0.010563642 -0.001156311 -0.0039101234 -0.0035115376 -0.0021822997 -0.013495079 -0.015027211 -0.0029672119
-0.014932003 -0.0010293421 0.00028852452 -0.0014489032 -0.005809259 8.837199e-05 -0.012080867 -0.01620315
-0.0034012436 -0.002142653 -0.014916099 -0.013023618 -0.0075704004 -0.0016329585 0.0014133711 -0.015030703
-0.015952641 -0.008065497 -0.014760017 -0.017120002 -0.00673702 -0.015911033 -0.0147650605 -0.0032757865
0.000632829 -0.015162272 -0.0053722793 -0.0018976228 -0.0042124237 -0.0047195246 -0.015862197 -0.016886009
00000000: 88ab 38bc 6265 17bc 39d0 1f3a f84a 7ebc
00000010: 7598 89bb c7cb 7b3a 8e57 71bb 5498 83bc
00000020: 23d6 8bbb 7e7a a2bb a25b ed3a 1361 ccbb
00000030: 13e1 6bbc 7955 9fbb 1ba2 8abb 9c2d 56bb
00000040: 36cf 73bc 1df6 9239 beaa 6cbc bc82 1f3b
00000050: 3186 83bc bcef dfba 05f0 3bbb fe7b aebb
00000060: c6a3 7fbc 6979 ecb8 01f5 75bc e37e eaba
00000070: 229a 9bbb 3958 02bc 42e4 6abc d069 6cbb
00000080: add0 313b e0b0 94bb 93a8 89bb edd6 a1bb
00000090: 9c2f 24ba 2c6c 39bb c6a8 b0bb ece1 86bb
000000a0: 4d27 7cbc 7cb7 863a 0413 82bb fd9e b6bb
000000b0: 7589 5cba 59f8 8abc 2c05 333b d578 4dbc
000000c0: cbb9 7a3a adc7 69bc 4357 94bb 9efc 7bbb
000000d0: 89fd 16b9 2262 88bc c2ae 70bc 4e36 0c3b
000000e0: 2bf3 9cbb 6f1e 2eba dc03 eb3a 067b a6bb
000000f0: 0393 5cbc 63a9 6bbc 6237 80bc bbfb e0bb
00000100: d7b6 a0bb 30ff 97bb a444 80bc d895 9f3a
00000110: efaa 68bb b064 82bc 6a04 7ebc 42c6 86b9
00000120: 817e 82bc e981 bebb 2a7e 81bc d270 98bb
00000130: a893 91bb 9596 82bc 4b31 8abb b1b8 aeba
00000140: 36b7 ca3a b264 6bbb be71 36bb 8fd5 b5bb
00000150: d33b 2a3a 63e4 71bc 1066 8abb 215b 53bb
00000160: a224 97bb 2a64 8bbc f9fa 3bbc 873d 8ebb
00000170: d4ea 71bc e135 88bb aa8e 71ba 0d8d 83bb
00000180: d996 12bc b31a 64bc c966 81bc 3295 b5bb
00000190: 3110 51bb e1a2 b1bb 4781 96bb e0fd efba
000001a0: e72e 67bc 5318 3a3b 254d a1bb 4062 81bc
000001b0: 0d42 6bbb 9c9d 78bc 0f9b 413b 7ff1 a5bb
000001c0: 2e80 8bba 82a5 88bc 08b4 2ebb 5360 85bb
000001d0: 4de7 49bc ffa7 88bc ef83 86bc 9a5c 74bc
000001e0: 5edb 62bc 05b2 82bc 212b 073b 71a9 88bc
000001f0: 9755 3bbb c99c 1fbb 4976 8ebb 60af 58bc
00000200: 86ea 69bc e05d 89bc cddc 6d38 6c65 73bc
00000210: 2e9f b73a acb2 87bb ad8f d2ba dd16 80bc
00000220: c0d3 6dbc 8e1a c9bb 2694 89bc fb25 0e3b
00000230: a650 8abc 3734 67bc 7ab9 7abb a8ef 1bbc
00000240: 11a8 80bc 1917 87bc 3b0f 0638 5296 e23a
00000250: fceb 4abc d2a5 85bc b6ae 8bbc 6b60 0c3b
00000260: 7278 5ebb 05c2 1abb b5fa 9cbb fb4a 86bc
00000270: 7b5f 6fbc e707 a3bb ea0b 3ebb c161 7dbb
00000280: 0929 b4bb cbb1 2eba 00e8 4b3a 97b6 14bb
00000290: 1591 113b 3776 e3ba 07ff 7ebc e3c0 80bc
000002a0: a448 24bb 9fa0 48bb d55f 993a 400f 6cbb
000002b0: 966f 74bc 7b92 d0b9 5891 58bc 8625 72bc
000002c0: 640d f93a 70fe 6bbc cddd 89bc 3898 72bc
000002d0: 5870 a0bb f362 b53a 35da 6a39 34bd 81bc
000002e0: c7c4 7ebc 21ba 653a 016e 3fbb a13a 99bb
000002f0: f63b 88bc 3c2a 16bc eff7 8fbb cc70 aabb
00000300: 36c8 81bb 21ea 89bb 3ee5 a8bb eba9 2ebb
00000310: 4606 97bb f06a 46bc 03dd 2fbb f4e9 aebb
00000320: 7ad5 c7ba 5fa1 b4bb ad39 81bc b4ee b1b9
00000330: 59e1 b5bb e879 9139 bd52 b8b9 e3c5 35b9
00000340: 9c40 3dbb 2595 bb3a fca3 5dbc ad5b a0ba
00000350: b4ab 65bc cc25 62bb 90bf 34bb a2cc 48bc
00000360: 2013 2dbc 5c8f 97ba 7e20 80bb d321 66bb
00000370: ea04 0fbb 771a 5dbc b134 76bc 8e75 42bb
00000380: 5ca5 74bc fdea 86ba 1b45 9739 20e9 bdba
00000390: 995b bebb 5a54 b938 d4ee 45bc 78bc 84bc
000003a0: 66e7 5ebb c16b 0cbb a762 74bc 0361 55bc
000003b0: 1f11 f8bb ff08 d6ba dd40 b93a 5643 76bc
000003c0: 1daf 82bc 2525 04bc 00d4 71bc 3f3f 8cbc
000003d0: 38c2 dcbb db57 82bc 27e9 71bc 94ae 56bb
000003e0: 6fe4 253a 2e6b 78bc f209 b0bb a8b9 f8ba
000003f0: 5f08 8abb 3ea6 9abb 70f1 81bc 8754 8abc

layer_3.bias f4 [2]
0.016612956 0.07205849
00000000: e517 883c 6793 933d
